gun.pth (torch, 204511 bytes, 17 tensors)

conv.0.weight f4 [6, 3, 4, 4]
0	0xbd06c971	-0.032906953
1	0xbd17491c	-0.036934957
2	0xbd20fadb	-0.039301734
3	0xbc584101	-0.013199092
4	0xbc134624	-0.008988891
5	0xbcb1cd99	-0.021704482
6	0xba6ebcd4	-0.0009107117
7	0x3c9cf4df	0.019159732
8	0xbce27129	-0.02764185
9	0x3b73e510	0.003721539
10	0xba99370b	-0.0011689378
11	0x3c9a000b	0.018798849
12	0xbd672099	-0.056427572
13	0xbc375f44	-0.011192147
14	0x3bf50a1d	0.0074780122
15	0xbc25c989	-0.0101188505
16	0xbcc4b717	-0.024013085
17	0xbcb73e13	-0.022368466
18	0xbc9729a3	-0.018452471
19	0xbcc4c29e	-0.024018582
20	0xbd243878	-0.040092915
21	0xbcf51e5e	-0.029921707
22	0xbd491584	-0.049092785
23	0xbc0108ce	-0.007875634
24	0xbde15b3f	-0.11003732
25	0xbce2ea90	-0.027699739
26	0xbdbed3b8	-0.09317726
27	0xbd53d15d	-0.051713336
28	0xbd1be5f4	-0.038061097
29	0xbda2da94	-0.07951847
30	0xbd3af6f8	-0.045645684
31	0xbdaad507	-0.08341413
32	0xba55f881	-0.0008162335
33	0xbd7afd9b	-0.061277013
34	0xbd19f126	-0.037583493
35	0xbcaa6fc0	-0.02080524
36	0xbd9c3da7	-0.07628947
37	0xbd86de8b	-0.065854155
38	0xbdd65a4c	-0.104664415
39	0xbd5d7f49	-0.054076467
40	0xbdf4df9a	-0.11956711
41	0xbdd7b536	-0.1053261
42	0xbe089761	-0.13338996
43	0xbdd0a659	-0.10187978
44	0xbd2d5e15	-0.04232605
45	0xbd4aa750	-0.049475968
46	0xbd0068f1	-0.03135008
47	0xbd5ea14b	-0.05435304
48	0xbcb278ee	-0.02178618
49	0x3c1142a0	0.008865982
50	0xb92f9822	-0.00016745974
51	0x3bce780f	0.006300933
52	0xba841c70	-0.0010079276
53	0xbc953ed6	-0.01821844
54	0x3b8eed77	0.004361804
55	0xbca70391	-0.020387443
56	0xbd4dea9d	-0.050272573
57	0x3c91fdbc	0.017821185
58	0xbd0da26f	-0.034578737
59	0xbc1fc029	-0.009750404
60	0xbbe07098	-0.0068493597
61	0xbd837f93	-0.06420817
62	0xbd00cab9	-0.03144333
63	0xbd4a22c9	-0.04934958
64	0xbbb122bc	-0.005405752
65	0xbc64ae05	-0.013957505
66	0xbcfb6039	-0.030685531
67	0x3c2538bf	0.01008433
68	0xbce81148	-0.028328553
69	0xbcc2e6a0	-0.023791611
70	0x3b5e9f03	0.003396929
71	0xbced707b	-0.028984299
72	0xbdf49562	-0.11942555
73	0xbd4c36e5	-0.04985704
74	0xbdb7c30f	-0.08972751
75	0xbd8eafd6	-0.06967132
76	0xbdb5498c	-0.088519186
77	0xbd231ade	-0.039820544
78	0xbdae7d5b	-0.085200034
79	0xbce8e81d	-0.028430993
80	0xbd0a05cd	-0.03369694
81	0xbcee60f9	-0.029098975
82	0xbbf66cb8	-0.0075202845
83	0xbcd8d12c	-0.026466928
84	0x3d712afb	0.05887888
85	0xbd2520a9	-0.04031435
86	0x3c54eb2c	0.0129955225
87	0xbc8237dc	-0.015895776
88	0xbd60de1e	-0.054899327
89	0xbda15b27	-0.07878714
90	0xbd6b7a49	-0.057489667
91	0xbdcd480d	-0.10023508
92	0x3bce9e47	0.006305489
93	0xbd891fcb	-0.06695517
94	0xbcb16fd6	-0.021659773
95	0xbd6fd7fa	-0.05855558
96	0x3c8ac65e	0.016940292
97	0xbca38380	-0.019960165
98	0x3d0be694	0.034155443
99	0x3b96d9c5	0.004603597
100	0x3d4b377a	0.049613453
101	0x3ceb68df	0.02873653
102	0xbd28d6e7	-0.04122057
103	0x3cbbf272	0.022942755
104	0x3ba62b03	0.0050710454
105	0xbc87204f	-0.016494898
106	0xbc76e5f1	-0.015069471
107	0xbc024af1	-0.007952438
108	0xbcbb92da	-0.022897173
109	0xbd613cf8	-0.054989785
110	0x3ba9f2ea	0.0051864283
111	0xbdaad43c	-0.08341262
112	0x3c66ec78	0.0140944645
113	0x3cadbde5	0.021208713
114	0xbb605222	-0.0034228642
115	0x3d091116	0.03346356
116	0x3c4111b2	0.011784004
117	0x3cb0ae05	0.021567354
118	0x3c69979f	0.014257341
119	0x3cd2fe21	0.025755944
120	0xbd8da32d	-0.06915889
121	0xbb2155c7	-0.0024617778
122	0xbd20253e	-0.039098017
123	0xbd95096d	-0.072771885
124	0xbd0b86b6	-0.034064017
125	0xbc35cdcb	-0.011096428
126	0xbd0c9038	-0.034317225
127	0xbd0a9cc0	-0.033840895
128	0x3c2895ba	0.010289604
129	0xba578c28	-0.0008222484
130	0x3d0ad54a	0.033894815
131	0xbcea4493	-0.028597152
132	0xbda21681	-0.079144485
133	0xbb1d0f11	-0.002396528
134	0xbd017031	-0.031601135
135	0x3c01edd7	0.007930241
136	0xbc5ea632	-0.013589429
137	0xbd9e3a06	-0.07725911
138	0x3c3d1d77	0.0115426695
139	0xbd21f114	-0.03953655
140	0xbdda4c31	-0.106590636
141	0x3cdd217c	0.026993506
142	0xbd69104d	-0.05690031
143	0x3c3545ae	0.011063976
144	0x3c8c3838	0.017116651
145	0x3cbb42fb	0.022859087
146	0x3d028a79	0.03187034
147	0x3d0545c9	0.032537255
148	0x3c8b0fb0	0.016975254
149	0x3d368fe6	0.044570826
150	0x3cc2ad9e	0.023764428
151	0x3cb47310	0.022027522
152	0x38f96b76	0.000118932614
153	0x3c83bcf7	0.016081316
154	0x3cca6860	0.024707973
155	0xbcdee521	-0.027208867
156	0x3c3e858d	0.011628521
157	0x3c51b3d2	0.01279922
158	0x3c4fd35d	0.01268467
159	0x3b7dd849	0.0038733652
160	0x3d759d28	0.05996433
161	0x3cd05391	0.025430473
162	0x3d916f4d	0.07101307
163	0xbd384672	-0.044989057
164	0x3d1b6e4a	0.037946977
165	0x3d72de75	0.059294183
166	0x3d6217b4	0.055198386
167	0xbceee466	-0.029161643
168	0x3d67400c	0.056457564
169	0x3c8c032a	0.017091352
170	0x3d672d03	0.05643941
171	0xbcb0817d	-0.02154612
172	0xbcb37f06	-0.021911155
173	0x3c67b1d3	0.014141518
174	0x3aa5f5c7	0.0012661748
175	0xbcf479b8	-0.029843196
176	0x3ce42459	0.027849363
177	0x3c9a0314	0.018800296
178	0x3cd79aca	0.026318926
179	0xbc2d83f6	-0.010590544
180	0x3d8b9dc3	0.068172
181	0x3dbaecf0	0.091272235
182	0x3d8abef3	0.06774702
183	0x3cc4a5a3	0.024004763
184	0xbc138f0b	-0.009006272
185	0x3c04adc7	0.008098072
186	0x3b2be99c	0.0026231771
187	0xbd44d59b	-0.048055273
188	0x3c68fa34	0.014219809
189	0xbd68596c	-0.056725904
190	0xbd1c43e1	-0.038150672
191	0xbd140231	-0.036134902
192	0x3d46f459	0.04857287
193	0x3ca0821f	0.019593297
194	0x3ccb166b	0.024790963
195	0xb990f00c	-0.0002764467
196	0x3cd44e35	0.025916198
197	0x3d4c7090	0.049912035
198	0x3c2bbfe9	0.010482767
199	0x3cef3aea	0.029202897
200	0x3cc7636c	0.0243394
201	0x3cc24a6e	0.023717131
202	0x3cb34828	0.021884993
203	0xbb0bb79b	-0.0021319154
204	0xbcbd10a8	-0.023079231
205	0x3ca26820	0.019825041
206	0x3c891441	0.01673329
207	0x3a585dbd	0.0008253714
208	0x3bc21328	0.0059226938
209	0x3d3e6977	0.046487298
210	0x3bdcfba6	0.006743866
211	0x3d82fe1c	0.06396124
212	0xbc2ded88	-0.010615714
213	0x3cf3270e	0.029681709
214	0xbc6c238f	-0.014412775
215	0x3cffc4a0	0.031221688
216	0x3da32bfc	0.07967374
217	0x3d0f742b	0.035022896
218	0x3d9c2919	0.07625026
219	0x3d163d22	0.036679395
220	0x3dc3f149	0.09567506
221	0x3d3fbaf6	0.04680916
222	0x3dd72cfd	0.10506628
223	0x3c1133f6	0.008862486
224	0x3bdb3a78	0.0066903196
225	0x3e013f55	0.12621816
226	0x3c47c873	0.012193787
227	0x3dd95286	0.10611443
228	0x3d4b8f9f	0.049697515
229	0x3d1186d3	0.03552897
230	0x3d160a12	0.036630698
231	0xbc970182	-0.018433336
232	0x3d837c98	0.06420249
233	0x3e28b1b5	0.1647404
234	0x3d9fbf1a	0.078001216
235	0x3e0bbe68	0.13646853
236	0x3cdf8266	0.027283859
237	0x3ce631a8	0.02809985
238	0x3d8b36cd	0.06797562
239	0x3d252b6f	0.040324625
240	0xbd2ca22b	-0.042146843
241	0xbab74ffe	-0.0013985632
242	0x3cdcecee	0.026968446
243	0xbb298687	-0.0025867538
244	0xbd8acef2	-0.06777753
245	0x3c6a7c60	0.01431188
246	0xbbc33058	-0.0059566908
247	0x3d05b87c	0.03264664
248	0x3b14662c	0.0022643907
249	0xbbff5329	-0.007791896
250	0xbbaef1cc	-0.005338883
251	0xbcf978ad	-0.03045305
252	0xb991851a	-0.00027755724
253	0x3c61be3f	0.013778268
254	0xbcdedf98	-0.027206227
255	0x3ca10964	0.019657798

conv.0.bias f4 [6]
0	0xbdfbe628	-0.12299758
1	0xbe44dce4	-0.19224888
2	0xbe05fcc9	-0.13084711
3	0xbd7c01b3	-0.061525058
4	0xbc20b589	-0.009808906
5	0x3c45ab87	0.012064821

conv.2.weight f4 [12, 6, 4, 4]
0	0xbde0ab46	-0.10970168
1	0xbcbd778c	-0.023128293
2	0xbc0af8e9	-0.008482196
3	0xbd575adf	-0.052576896
4	0xbdb86f69	-0.09005625
5	0xbd8ac67e	-0.06776141
6	0xbdae8840	-0.085220814
7	0xbd95c574	-0.07313052
8	0xbd169028	-0.036758572
9	0xbcb51945	-0.022106776
10	0xbd3c9aab	-0.04604594
11	0x3b2b1df2	0.0026110378
12	0xbd28eb68	-0.041240126
13	0xbd4659fa	-0.048425652
14	0xbd313a47	-0.04326847
15	0xbd192388	-0.0373874
16	0xbd59aa65	-0.053141017
17	0xbcc4e6e8	-0.024035886
18	0xbd96e26b	-0.073674046
19	0xbda3dccc	-0.08001098
20	0xbd9cd0e6	-0.07657032
21	0xbceb6a19	-0.028737115
22	0xbd99bf03	-0.07507136
23	0xbd3460d4	-0.044037655
24	0xbd89df5a	-0.06732054
25	0xbaad81f7	-0.0013237585
26	0xbd03bbe9	-0.032161627
27	0xbc7f0d09	-0.015567073
28	0xbc1b6f61	-0.009487004
29	0x3c5d808a	0.013519416
30	0xb96044f9	-0.00021387999
31	0x3c0acdc2	0.008471908
32	0xbd61bc44	-0.055111185
33	0x3c4695f8	0.012120716
34	0xbcb63244	-0.022240765
35	0xbd253692	-0.040335245
36	0xbda0e1c4	-0.078555614
37	0xbcfced7f	-0.030874966
38	0xbcfd6bcc	-0.03093519
39	0xbd57d4d0	-0.05269319
40	0xbdb755d8	-0.0895192
41	0xbbc07c5c	-0.0058742
42	0xbd90fb1f	-0.070791475
43	0xbd6df928	-0.058098942
44	0xbd33af2d	-0.043868233
45	0xbcd094c4	-0.025461562
46	0xbd423793	-0.04741628
47	0xbd80f6e8	-0.06297094
48	0x3d426048	0.047455102
49	0x3af168c3	0.0018418062
50	0x3c6128b9	0.013742619
51	0xbcafa052	-0.021438751
52	0x3d7d4ef2	0.061842866
53	0x3cb4ce74	0.0220711
54	0x3d2ba9f4	0.041910127
55	0x3aa90d32	0.0012897609
56	0xbc6218ff	-0.013799905
57	0x3d32d017	0.04365548
58	0xbd8fd209	-0.07022483
59	0xbc2b5931	-0.010458277
60	0xbd6319f9	-0.05544469
61	0xbd2e6846	-0.04257991
62	0xbda6f9eb	-0.08153137
63	0xbd068a3c	-0.032846674
64	0x3d393834	0.045219615
65	0x3c62a000	0.013832092
66	0x3d7f342d	0.062305618
67	0x3d09222f	0.033479866
68	0x3d69f7da	0.057121135
69	0x3c32a810	0.010904327
70	0x3d4b5673	0.04964299
71	0x3d545955	0.051843006
72	0x3cb2196d	0.02174064
73	0xbcddfa32	-0.027096841
74	0xbc6a9cac	-0.01431958
75	0xbc8a73e9	-0.016900973
76	0x3d17d418	0.037067503
77	0xbcb438ba	-0.021999706
78	0x3d278b40	0.040904284
79	0x3d838880	0.0642252
80	0x3da8dd90	0.08245385
81	0x3c942af2	0.018086884
82	0x3d9498ea	0.072557285
83	0x3d3ed54e	0.046590142
84	0x3cfad7fc	0.030620568
85	0xbbfa8c22	-0.0076460997
86	0x3c548af7	0.012972585
87	0xbd161773	-0.036643457
88	0x3d45739c	0.048205957
89	0x3cb3c2a0	0.02194339
90	0x3c8355b2	0.016032074
91	0x3c74bfff	0.014938354
92	0x3c951094	0.018196382
93	0xbbd446d8	-0.006478172
94	0xbba35b39	-0.00498524
95	0xba1bfba4	-0.0005950278
96	0xbdccc204	-0.09997943
97	0xbc912c13	-0.017721212
98	0xbd0cf73e	-0.034415476
99	0xbd7a4af5	-0.06110664
100	0x3d03fc21	0.03222287
101	0xbbbdd114	-0.0057927463
102	0xbbc42855	-0.0059862533
103	0xbd25f91e	-0.04052078
104	0x3d083bc2	0.033260114
105	0x3c209b13	0.009802598
106	0x3c141dfa	0.00904035
107	0xbcf9e5aa	-0.03050502
108	0x3dd7bfd3	0.105346344
109	0x3d3e7432	0.04649753
110	0x3d9375ce	0.07200204
111	0x3d0d5e9c	0.034514055
112	0x3d108960	0.03528726
113	0xbbaffbac	-0.005370578
114	0x3d33cef3	0.043898534
115	0xbd508bae	-0.05091446
116	0x3cb22571	0.02174637
117	0x3ba06e1c	0.0048959386
118	0x3d11fd04	0.035641685
119	0x3c9854aa	0.018595058
120	0x3d6720b2	0.056427665
121	0x3c9fc035	0.019500831
122	0x3d6b7e41	0.057493452
123	0x3d30db58	0.043177933
124	0x3e022e13	0.12712888
125	0x3dd9409c	0.106080264
126	0x3da8ed17	0.08248346
127	0x3d89b8ea	0.06724723
128	0xbcfde87d	-0.030994648
129	0x3be37446	0.006941351
130	0xbd1555fc	-0.036458954
131	0xbc6909b9	-0.0142235095
132	0xbc690700	-0.01422286
133	0xbcb981dc	-0.02264493
134	0xbbcdbb9d	-0.0062784688
135	0xb9a57674	-0.00031559507
136	0x3d2e9d0f	0.04263025
137	0x3d35013e	0.044190638
138	0x3d0291f3	0.03187747
139	0x3cc40bf7	0.023931487
140	0x3daea93b	0.08528372
141	0x3da25c78	0.07927793
142	0x3dc03cee	0.093866214
143	0x3dab4d9e	0.08364414
144	0xbd09c4ca	-0.03363494
145	0x3d158c9a	0.03651104
146	0x3cbfc5db	0.023409775
147	0x3d798121	0.060914163
148	0xbc9e7f17	-0.01934771
149	0x3d56d4e1	0.05244911
150	0x3d6d61a5	0.05795445
151	0x3ca6cfbf	0.020362733
152	0xbb230dff	-0.0024880168
153	0x3d612f71	0.054976884
154	0x3da39145	0.07986692
155	0x3d8ffd2d	0.07030711
156	0xbc8994c1	-0.016794564
157	0x3caafab6	0.020871501
158	0x3c8ef0bb	0.017448774
159	0xbd0e0f7e	-0.034682743
160	0x3c14c65a	0.009080494
161	0xbca7b152	-0.020470295
162	0x3c19d585	0.009389286
163	0x3cc6b233	0.024254894
164	0xbc467d6b	-0.012114863
165	0xbd0d1af6	-0.03444954
166	0x3c9266d4	0.017871298
167	0xbc2defa1	-0.010616214
168	0xbd027316	-0.031848036
169	0x3c08b2fc	0.008343454
170	0xbc89f9d5	-0.016842762
171	0xbc5a2503	-0.013314488
172	0xbdaa5534	-0.083170325
173	0xbd144275	-0.03619619
174	0xbcdcddf2	-0.0269613
175	0xbd281663	-0.041036975
176	0x3c84c60b	0.016207715
177	0x3bc1fdc2	0.005920143
178	0x3c92dc71	0.01792738
179	0x3c7aa567	0.015298224
180	0xbc902aa2	-0.017598454
181	0xbcd2a409	-0.025712984
182	0x3c30b1d5	0.010784586
183	0xbb4037b8	-0.0029330086
184	0xbce2a956	-0.027668636
185	0xbcc394c0	-0.02387464
186	0x3d000d13	0.03126247
187	0xbb87bc63	-0.0041423305
188	0x3c36c2b7	0.011154822
189	0x3ce7eb8e	0.028310563
190	0x3c562da4	0.013072405
191	0x3c01949b	0.007908965
192	0xbcf1695a	-0.02946918
193	0xbb808152	-0.003921666
194	0xbd37465b	-0.04474483
195	0xbc7f5dad	-0.015586299
196	0xbda01e0d	-0.07818232
197	0xbd7eadba	-0.062177397
198	0xbd94adc4	-0.07259706
199	0xbd2b0f81	-0.041762833
200	0xbd9ad940	-0.075609684
201	0xbd36c89d	-0.044624913
202	0xbd210f81	-0.039321426
203	0xbd81f7bb	-0.06346079
204	0xbd920a2e	-0.07130848
205	0xbc840dc8	-0.016119853
206	0xbc9809b2	-0.01855931
207	0xbdb0430f	-0.086065404
208	0xbd63545c	-0.055500373
209	0x3cda55a4	0.026652165
210	0x3c9ab46a	0.018884856
211	0xbc85f458	-0.016351864
212	0xbd069eb0	-0.03286618
213	0xbc0b9a4b	-0.008520673
214	0xbce90aef	-0.028447596
215	0xbdb2c16b	-0.08728298
216	0xbc853ea1	-0.016265215
217	0xbd52b1c8	-0.051439077
218	0xbd65ced2	-0.056105442
219	0xbd78dfc3	-0.06076027
220	0x3c6469a0	0.013941199
221	0x3c14213d	0.009041128
222	0x3c49b5c0	0.012311399
223	0xbc4797b6	-0.012182167
224	0xbb12acd6	-0.002238085
225	0x3c3c2cd6	0.011485299
226	0x3bed596e	0.007243327
227	0x3c473983	0.012159708
228	0xbdad8734	-0.084730536
229	0x3ba26cb1	0.0049568047
230	0x3b73bf9b	0.0037193063
231	0xbd27da7c	-0.040979847
232	0xbd9ccf8f	-0.07656776
233	0xbd92e08f	-0.071717374
234	0xbde1f557	-0.11033123
235	0xbd43b5b3	-0.047780704
236	0xbd917344	-0.07102063
237	0xbad59ee2	-0.0016297961
238	0xbd1e602b	-0.03866593
239	0xbcdcae1f	-0.026938496
240	0xbc87919f	-0.01654893
241	0x3c934be7	0.017980529
242	0x3c49ca52	0.012316303
243	0xbaf571a0	-0.001872588
244	0xbc401bd6	-0.011725387
245	0xbd12a750	-0.035804093
246	0xbba99067	-0.005174685
247	0xbbfc6b59	-0.0077032265
248	0xbc94e859	-0.018177198
249	0x3d2a4cca	0.041577138
250	0xbd207901	-0.0391779
251	0x3bc15ba9	0.0059008193
252	0xbcf28930	-0.029606432
253	0x3d35ebf3	0.04441447
254	0x3badc721	0.005303279
255	0x3b1ba83b	0.0023751396

conv.2.bias f4 [12]
0	0x3df210bb	0.11819597
1	0xbe3ea547	-0.18617736
2	0x3e21455d	0.15749116
3	0x3d72bf38	0.05926439
4	0xbe02a8af	-0.1275966
5	0xbd210d6d	-0.039319444
6	0xbdc2a570	-0.09504211
7	0xbe186758	-0.14883173
8	0xbc766c1b	-0.015040423
9	0x3dfb9556	0.12284343
10	0x3c7983da	0.01522919
11	0x3c0efda1	0.008727462

conv.4.weight f4 [24, 12, 4, 4]
0	0x3d201b61	0.03908861
1	0x3db48e94	0.08816257
2	0x3d19d197	0.037553396
3	0x3cb27c7a	0.02178787
4	0x3d7e4456	0.06207689
5	0x3d5fe968	0.054665953
6	0x3d86a072	0.06573571
7	0x3d5b967c	0.05361031
8	0xbc13601b	-0.008995081
9	0x391ef912	0.0001516084
10	0x3d75fcb6	0.060055457
11	0x3b9e3787	0.0048283967
12	0x3cb5000b	0.022094747
13	0x3cdb37bf	0.02675998
14	0x3d758501	0.059941296
15	0x3cce11b7	0.025154931
16	0xbda5cb00	-0.0809536
17	0xbcd84f1c	-0.02640491
18	0xbcc8007f	-0.024414299
19	0xb9f3efcd	-0.00046527237
20	0xbde226ef	-0.11042582
21	0xbd70930d	-0.05873399
22	0xbda5b65e	-0.080914244
23	0xbca174d1	-0.019709023
24	0xbd324308	-0.043520957
25	0x3b712758	0.0036797132
26	0x3ce6556c	0.028116904
27	0x3d3f896b	0.04676191
28	0xbd47578a	-0.048667468
29	0xbd1e4847	-0.038643148
30	0xbd6f0e0b	-0.058363
31	0x3d05ee58	0.032698005
32	0x3d1532f6	0.036425553
33	0x3da34a92	0.079732075
34	0x3ce9d05f	0.028541742
35	0x3d3d2574	0.046178296
36	0x3d479889	0.048729453
37	0x3d42db7b	0.047572594
38	0x3d9a3dc4	0.07531312
39	0x3d25d37f	0.0404849
40	0xbce97f9c	-0.028503232
41	0xba329bdf	-0.0006813388
42	0x3b2a779b	0.0026011232
43	0x3c01c695	0.007920881
44	0x3cf8742e	0.030328836
45	0x3d10e089	0.035370383
46	0x3ced3886	0.028957617
47	0xbb7518c3	-0.0037398792
48	0x3cd50abb	0.026006093
49	0x3d2ebefe	0.042662613
50	0x3d8f1b34	0.069876105
51	0xbc885d0c	-0.01664593
52	0x3d82cddb	0.0638692
53	0x3d3dec0a	0.046367683
54	0x3cf2e98d	0.029652381
55	0x3c215aba	0.009848291
56	0xbd0bf45e	-0.034168594
57	0x3ba904ec	0.0051580574
58	0x3c9d9812	0.019237552
59	0xbcb7a6dc	-0.022418432
60	0x3bac432b	0.0052570305
61	0x3c8c7777	0.017146809
62	0x3d698063	0.057007205
63	0x3d24273b	0.040076476
64	0xbd5568cf	-0.052101906
65	0xbd432409	-0.047641788
66	0xbd38d5a3	-0.045125615
67	0xbc9bf19c	-0.019036107
68	0xbd8aba1a	-0.06773777
69	0xbd957f17	-0.07299631
70	0xbd58264a	-0.05277089
71	0xbc77f221	-0.015133412
72	0xbd534e55	-0.051588375
73	0x3c7665e1	0.015038938
74	0x3c40fc46	0.011778897
75	0xb983601e	-0.0002505788
76	0xbd4a5d4e	-0.04940539
77	0xbd1e150d	-0.038594294
78	0xbdd73d8e	-0.105097875
79	0xbc5ba460	-0.013405889
80	0xbd41be72	-0.047300763
81	0xbcab60ba	-0.020920146
82	0xba73048e	-0.0009270393
83	0xbd0f83c5	-0.035037775
84	0xbb904b72	-0.004403525
85	0x3a3e7b6d	0.00072663167
86	0x3c909330	0.01764831
87	0xbd183ba0	-0.037166238
88	0xbc3ac579	-0.01139962
89	0xbcc33fd2	-0.023834143
90	0xbc7f752e	-0.015591903
91	0xbc139ff4	-0.009010304
92	0xbc9e3cec	-0.01931616
93	0xbc919751	-0.017772349
94	0x3b91ec3c	0.00445321
95	0xbcd3f2a5	-0.025872538
96	0xbc93a635	-0.01802359
97	0xbc9b7efd	-0.018981451
98	0xbc1e83ec	-0.009675007
99	0x3cb11395	0.021615783
100	0xbd2fc82c	-0.04291551
101	0xbd6e8906	-0.058236144
102	0xbc548e96	-0.012973448
103	0x3c5d630f	0.013512387
104	0x3ca730f8	0.020409092
105	0x3c6c9301	0.014439345
106	0x3d3ecba1	0.046580914
107	0x3d9c1b7d	0.076224305
108	0x3d019ce1	0.031643752
109	0x3d16ca8a	0.03681425
110	0x3d2520c1	0.04031444
111	0x3d2c3682	0.04204417
112	0xbd6d737a	-0.057971455
113	0xbc1b709d	-0.009487298
114	0x3c12fdbf	0.008971631
115	0xbb1a4ce1	-0.0023544359
116	0xbd1500b7	-0.036377635
117	0xbce4e202	-0.0279398
118	0x3c1d06ad	0.009584111
119	0x3c4bf0a1	0.012447507
120	0xbd529829	-0.051414642
121	0x3ca586d6	0.020205896
122	0x3cddcb34	0.027074434
123	0x3dbdc9b6	0.09266989
124	0xbb86191e	-0.0040923497
125	0x3da80141	0.08203364
126	0x3da509de	0.08058523
127	0x3d921edb	0.071347915
128	0xbd2904d5	-0.041264374
129	0xbc179192	-0.009251015
130	0x3c4f3521	0.012646944
131	0xbd5db5bb	-0.05412839
132	0xbc24f0bc	-0.010067161
133	0xbc939fbc	-0.018020503
134	0x3a27206c	0.00063753757
135	0xbb101159	-0.0021982996
136	0xbbe1aa8f	-0.0068867872
137	0xbd2b1fc8	-0.041778356
138	0xbd3d30a9	-0.046188984
139	0xbd87ebcb	-0.06636771
140	0x3d871fa6	0.06597833
141	0x3d6885b0	0.05676812
142	0x3ca6096c	0.020268165
143	0x3c4b6cfe	0.0124161225
144	0x3d1abf66	0.037780188
145	0x3d788a05	0.0606785
146	0x3d9529a1	0.07283331
147	0x3d681e0b	0.056669276
148	0x3d26292e	0.040566616
149	0x3d3e8ab4	0.046518996
150	0x3dd049fb	0.10170361
151	0x3d80f58c	0.06296834
152	0x3d49cb74	0.049266294
153	0x3dd089db	0.10182544
154	0x3d73667b	0.059423905
155	0x3d50caa5	0.050974507
156	0x3d8bffe6	0.06835918
157	0x3dab4ab1	0.08363856
158	0x3e132f16	0.1437343
159	0x3dd3d8a9	0.10344059
160	0xbd86100f	-0.06546032
161	0xbd2e7cc1	-0.042599443
162	0x3cb55315	0.022134343
163	0x3c187330	0.009304807
164	0xbd52c11f	-0.051453706
165	0xbb2e0271	-0.0026551748
166	0xba712af3	-0.00091998203
167	0x3c7931dc	0.015209641
168	0xbcd33406	-0.025781643
169	0x3d0a9ab8	0.033838958
170	0x3d2cff1b	0.042235475
171	0x3d25d288	0.04048398
172	0xbd595269	-0.053057108
173	0xbd93b022	-0.07211329
174	0xbd44c2b0	-0.04803723
175	0x3b89c7b6	0.0042047156
176	0xbc85410a	-0.016266365
177	0xbc1a7249	-0.009426662
178	0xbc61e6f9	-0.013787978
179	0xbb7804af	-0.0037844589
180	0xbbfba0f8	-0.007679101
181	0xbcc5bd18	-0.024138018
182	0xbd559884	-0.052147403
183	0x3cd5d654	0.026103176
184	0xbcef476c	-0.029208861
185	0xbc4fd2b4	-0.012684513
186	0xbd3e0ca7	-0.046398785
187	0xbc8077a2	-0.015682045
188	0x3d0a4e8e	0.03376632
189	0x3cf92064	0.030410953
190	0x3c8a329e	0.01686984
191	0x3d8884c3	0.06665947
192	0xbb259d0d	-0.0025270612
193	0x3bd413b4	0.0064720754
194	0xbb2bf6a7	-0.0026239546
195	0xbb22d55e	-0.0024846415
196	0xbcaa5dda	-0.020796705
197	0xbce230ff	-0.027611254
198	0x3d318569	0.04334012
199	0xbb1a5288	-0.0023547728
200	0xbd4bec82	-0.0497861
201	0x3ccc7e4e	0.02496257
202	0xbcbfc009	-0.023407
203	0xbd2406e9	-0.040045653
204	0xbc26ced1	-0.010181145
205	0xbc9651b8	-0.018349513
206	0xbd295152	-0.04133732
207	0xbc905574	-0.017618872
208	0xbaef55ac	-0.0018259785
209	0xbc2623e4	-0.010140393
210	0xbd0db88f	-0.034599837
211	0xbc567671	-0.013089762
212	0x3c8197b8	0.015819415
213	0x3d3e3884	0.046440616
214	0xbb3a3b6a	-0.0028416761
215	0x3d4baf48	0.049727708
216	0x3cba7bc7	0.0227641
217	0x3c8e5d10	0.01737836
218	0x3d2c6165	0.04208507
219	0x3afb1235	0.0019155206
220	0x3d5c45ce	0.05377751
221	0x3d986381	0.07440854
222	0x3db7e7ff	0.089797966
223	0x3d8dffa0	0.06933522
224	0xbd6db50a	-0.05803398
225	0x3c72f49a	0.014828825
226	0x3cdb29ed	0.02675339
227	0x3b13fbfe	0.002258062
228	0xbd736fe5	-0.059432883
229	0x3c4e28a5	0.012582933
230	0xbca3f8c0	-0.020016074
231	0xba97e1e4	-0.0011587706
232	0xbd8491a5	-0.06473092
233	0xbd3efbbc	-0.04662679
234	0xbd739919	-0.059472177
235	0xbc9804a0	-0.018556893
236	0xbd37833c	-0.04480289
237	0xbd6daae3	-0.0580243
238	0xbd00bdf0	-0.03143114
239	0xba4f0e46	-0.000789855
240	0xbb1828ce	-0.002321768
241	0x3ce29863	0.027660554
242	0x3cb218c5	0.021740327
243	0x3d0b64ff	0.034031864
244	0xbd30313e	-0.04301571
245	0x3ab4db51	0.0013798272
246	0xbc8c640c	-0.01713755
247	0x3cc5b8ee	0.024136033
248	0xbd8a7fa5	-0.067626275
249	0xbc41c02a	-0.011825601
250	0x3d2ce9ea	0.042215265
251	0xbabb4832	-0.0014288484
252	0xbd5618ef	-0.052269872
253	0xbd5797b7	-0.05263492
254	0xbd199403	-0.03749467
255	0xbce95fa2	-0.028487984

conv.4.bias f4 [24]
0	0x3d8b6c9e	0.068078265
1	0xbda28344	-0.07935193
2	0xbd4abb16	-0.049494825
3	0xbe268700	-0.16262436
4	0xbde58a3a	-0.11208005
5	0xbe25b862	-0.16183618
6	0xbd491f79	-0.04910228
7	0xbdf7cf85	-0.12100128
8	0xbe1d7f0c	-0.15380496
9	0xbdbc92ac	-0.09207663
10	0xbe1df187	-0.15424167
11	0x3e1074d1	0.14107062
12	0xbde5bd33	-0.112177275
13	0xbe2fef06	-0.17181024
14	0xbd7c7788	-0.06163743
15	0x3e0f5b9e	0.13999793
16	0xbd25dc4c	-0.040493295
17	0xbd88d289	-0.066807814
18	0xbc46ec6c	-0.012141328
19	0x3d91177a	0.07084556
20	0xbdbc07e7	-0.09181195
21	0xbdcced5b	-0.100062095
22	0xbd04d8da	-0.03243337
23	0xbdcf3ef5	-0.1011943

conv.6.weight f4 [48, 24, 4, 4]
0	0xbbd98f92	-0.0066394294
1	0xbd1e3118	-0.03862104
2	0xbd079934	-0.03310509
3	0xbd08ce68	-0.03339997
4	0xbc129ba5	-0.008948241
5	0xbce57655	-0.028010527
6	0xbcecbdde	-0.02889913
7	0xbdcb32d0	-0.09921801
8	0x3c20127f	0.009770035
9	0xbd9a7bea	-0.07543166
10	0xbcfe8bfe	-0.031072613
11	0xbd3865f4	-0.045019105
12	0xbca46743	-0.02006877
13	0x3b04bc56	0.0020253859
14	0x3cdd444b	0.027010104
15	0xbd6196a7	-0.055075314
16	0x3d1d4dcf	0.038404282
17	0x3acfde96	0.0015859182
18	0x3d446682	0.04794932
19	0x3c85e5ce	0.016344931
20	0xbb691207	-0.0035563724
21	0x3bc9595f	0.006144687
22	0x3ca9d572	0.020731661
23	0x3c86017b	0.016358128
24	0xbb950d52	-0.004548707
25	0xbd02dc00	-0.03194809
26	0xbbd5846d	-0.0065160305
27	0xbc984c0c	-0.01859095
28	0x3ca8f488	0.020624414
29	0x3cf38f6d	0.029731477
30	0x3c83cd7b	0.016089192
31	0x3d66ebc3	0.056377184
32	0x39a3e68e	0.0003126156
33	0x3bdc6ce7	0.0067268494
34	0x3bfa1369	0.0076317084
35	0xbd6054d9	-0.054768417
36	0x3d20996f	0.039208826
37	0xbc5a08f4	-0.013307799
38	0x3ca42f8a	0.0200422
39	0xbc019128	-0.007908143
40	0xbca53d3d	-0.020170802
41	0xbcc6721f	-0.024224339
42	0x3c1b8676	0.009492507
43	0x3b8cee08	0.0043008365
44	0x3cc08315	0.023500005
45	0x3b26142c	0.0025341613
46	0x3ba97d8e	0.005172438
47	0x3b84358e	0.0040347045
48	0x3d10eecc	0.035383984
49	0xbc3b6783	-0.011438253
50	0x3d197b32	0.037471004
51	0x3d19b610	0.037527144
52	0x3ca43e21	0.020049157
53	0xbc55e9d2	-0.013056235
54	0x3cc0d5f2	0.023539517
55	0x3d2fc5b0	0.04291314
56	0xbbc7d948	-0.0060989
57	0x3b657e0d	0.003501776
58	0x3caba893	0.020954406
59	0x3c1a16fd	0.009404895
60	0x3d128ff2	0.03578181
61	0x3d168c20	0.036754727
62	0x3d957912	0.07298483
63	0x3cfc2eab	0.030783972
64	0xbceb6ff6	-0.02873991
65	0x3c83c933	0.01608715
66	0x3cc6aec1	0.024253251
67	0xbd02dad1	-0.03194696
68	0x3d1bc655	0.03803094
69	0x3cdf2c42	0.027242783
70	0x3d8daafb	0.069173776
71	0x3bda7d49	0.006667767
72	0x3b547ff3	0.0032424896
73	0x3c59759c	0.013272669
74	0x3cc23aee	0.02370974
75	0x3be4fd2f	0.0069881896
76	0x39435828	0.0001862949
77	0x3b5dd895	0.0033851017
78	0x3c4ddea0	0.012565285
79	0x3d27d58e	0.040975146
80	0x3c08f5b6	0.008359363
81	0x3c327b66	0.010893678
82	0x3c55ec5d	0.013056842
83	0xbc2649de	-0.010149447
84	0x3c69e1df	0.014275043
85	0x3c8dab87	0.017293705
86	0x3d2abb56	0.041682564
87	0x3c4af93b	0.012388523
88	0xbc85bcab	-0.016325315
89	0xbb7fd5e4	-0.00390374
90	0xbb1843e8	-0.0023233835
91	0x3c0c4a84	0.008562688
92	0xbc017abb	-0.007902796
93	0x3c724894	0.014787812
94	0x3c12e1fb	0.008965011
95	0x3ca84c36	0.020544153
96	0x3c30dee3	0.010795328
97	0x3d16ce09	0.036817584
98	0x3cb1d7d0	0.021709353
99	0xbc3536d8	-0.011060439
100	0xbcaf179c	-0.021373563
101	0xbce41031	-0.027839752
102	0x3ccddb8d	0.025129104
103	0x3d0af1f2	0.033922143
104	0xbd4d22cb	-0.05008201
105	0x3aba8215	0.0014229441
106	0x3bb03ea7	0.0053785625
107	0xbd4358bb	-0.04769204
108	0x3c2dece4	0.010615561
109	0x3d3b2186	0.045686267
110	0x3d4fc69c	0.050726518
111	0x3cc41db7	0.02393995
112	0x3a67c982	0.00088419777
113	0x3c52f75c	0.012876358
114	0x3d6768fc	0.056496605
115	0xbb936be3	-0.004498945
116	0xbbb33a39	-0.005469587
117	0xbc112e19	-0.008861088
118	0x3cc39edc	0.023879461
119	0x3d04e5db	0.03244577
120	0xbd06dfd9	-0.03292832
121	0xbd96bb68	-0.07359964
122	0xbd6c07f9	-0.05762479
123	0xbd6a458e	-0.05719524
124	0x3a647e54	0.0008716334
125	0x3d877f85	0.06616119
126	0x3cdc49e0	0.026890695
127	0x3d85092a	0.064958885
128	0x3d1e8833	0.03870411
129	0x3d033cea	0.032040514
130	0x3d2517d0	0.040305912
131	0xbcf8fc9d	-0.030393893
132	0x3d35fc23	0.04442991
133	0x3d9ac2db	0.07556697
134	0x3d9d137a	0.076697305
135	0x3b57046a	0.0032809027
136	0x3d03415d	0.032044757
137	0x3b9aa301	0.0047191386
138	0x3d169ba8	0.03676954
139	0xbba17bdb	-0.004928095
140	0x3c6aa7fa	0.014322275
141	0xbaedda83	-0.0018146787
142	0x3cae5d26	0.021284651
143	0x3d479c0e	0.04873281
144	0x3c2fb748	0.01072485
145	0x3d105558	0.03523764
146	0x3d220dc4	0.03956391
147	0x3d9427a1	0.07234121
148	0x3b6a7594	0.0035775648
149	0xbcf32df3	-0.029684996
150	0xbc839d7b	-0.016066303
151	0x3cb16d2a	0.021658499
152	0xbd00e2f2	-0.031466432
153	0xbcc5f867	-0.024166299
154	0xbc97f7dd	-0.018550808
155	0xbce57e35	-0.028014282
156	0x3cc6d84f	0.024273066
157	0x3d20cf4c	0.039260194
158	0x3cecfdb4	0.028929569
159	0x3d22d6f2	0.03975577
160	0xbcf60a9a	-0.030034352
161	0x3c9379c0	0.01800239
162	0x3d4ac71e	0.0495063
163	0x3ca8c9e5	0.020604083
164	0xbc6bf21b	-0.014400984
165	0xbd0eb4ae	-0.03484028
166	0x3b4d7d86	0.0031355335
167	0x3c98d7c0	0.018657565
168	0xbca22232	-0.019791696
169	0x3ce3b409	0.027795808
170	0x3c98d175	0.018654564
171	0x3d3453fd	0.04402541
172	0x3d1439d1	0.03618795
173	0x3cbf1c65	0.02332897
174	0x3d2ffaff	0.042963978
175	0x3d565c79	0.052334283
176	0x3cb4f1ea	0.02208801
177	0x39013f0b	0.00012325884
178	0x3d7e8bdc	0.0621451
179	0xbbab27db	-0.005223257
180	0xbd78a224	-0.060701504
181	0xbce4c194	-0.027924336
182	0xbc9c97d9	-0.019115375
183	0xbce9e31a	-0.028550673
184	0xbd89d600	-0.067302704
185	0xbd0a633e	-0.03378605
186	0xbc165e65	-0.009177779
187	0xbd31130d	-0.04323106
188	0x3b8418b7	0.0040312666
189	0x3be98292	0.007126161
190	0x3d91db62	0.07121922
191	0x3d1c4f27	0.038161423
192	0x3c0b2c22	0.008494409
193	0x3c1f660e	0.009728922
194	0x3c2f71cf	0.010708286
195	0xbdc2ced9	-0.09512109
196	0x3d018cb7	0.031628337
197	0x3abae1f5	0.0014258014
198	0x3d212471	0.039341394
199	0x3c8b44d8	0.0170006
200	0xbc877237	-0.016533954
201	0xbc28f15d	-0.010311452
202	0x3b15a74b	0.002283531
203	0xbbd5e504	-0.006527545
204	0xbd1c2cfd	-0.03812884
205	0xbd140003	-0.036132824
206	0x3cfc1670	0.030772418
207	0x3c858d94	0.016302861
208	0xbce9e4de	-0.028551515
209	0xbbf34482	-0.0074239383
210	0x3ba14b16	0.004922281
211	0xbc351984	-0.011053447
212	0x3ce25551	0.027628573
213	0xbc2e3c11	-0.010634438
214	0xbc82d99f	-0.01597291
215	0x3c82dac6	0.01597346
216	0xbbf0c483	-0.007347645
217	0xbd69946d	-0.057026315
218	0xbc1ff46e	-0.009762866
219	0x3d31b412	0.04338462
220	0x3cb5fea1	0.022216143
221	0x3ce38d02	0.027777199
222	0xbca5dd70	-0.020247191
223	0x3d3e0d39	0.04639933
224	0xbd41149c	-0.047138795
225	0xbc26e748	-0.010186978
226	0x3cf9ffa9	0.030517416
227	0xbda9d7c9	-0.08293111
228	0xbd7907b0	-0.060798347
229	0x3c8e32e3	0.017358249
230	0x3d451302	0.04811383
231	0xbd618a33	-0.055063438
232	0xbc680017	-0.014160178
233	0xbc5236b0	-0.012830421
234	0x3be68eea	0.0070360797
235	0x3c4262aa	0.011864344
236	0xbce78157	-0.028259916
237	0x3cc208c9	0.02368583
238	0xbc3d3dc8	-0.011550374
239	0x3cb09675	0.021556119
240	0xbd1624bf	-0.036656138
241	0xbd6569c8	-0.056009084
242	0xbc727e3b	-0.0148006035
243	0xbd62d1a1	-0.0553757
244	0xbd14370d	-0.036185313
245	0xbd328f54	-0.04359372
246	0xbc6f2119	-0.014595293
247	0xbd885d02	-0.06658365
248	0xbcdf319f	-0.02724534
249	0xbd1547d2	-0.036445446
250	0x3b6dad1f	0.0036266518
251	0x3c454673	0.012040722
252	0x3dca844d	0.098885156
253	0x3d63e1ba	0.05563519
254	0x3d77328d	0.060350943
255	0x3d277dbf	0.040891405

conv.6.bias f4 [48]
0	0xbd0d713b	-0.034531813
1	0xbd48668c	-0.04892592
2	0xbd9a1caf	-0.07525002
3	0x3da42719	0.0801527
4	0x3d34a33a	0.044100977
5	0xbd093a8f	-0.03350311
6	0xbd2971d7	-0.04136833
7	0xbe1a0c0c	-0.15043658
8	0x3c9f3c59	0.019437956
9	0x3da5e593	0.081004284
10	0x3d63e4c7	0.0556381
11	0x3db18211	0.08667386
12	0xbc960545	-0.01831306
13	0xbd6420c7	-0.05569532
14	0x3bf07a56	0.0073388023
15	0x3d5602b6	0.05224868
16	0x3d70fb01	0.058833126
17	0x3cc3d8ea	0.023907144
18	0x3c953b06	0.018216621
19	0xbe115761	-0.14193489
20	0xbe0cf0e7	-0.13763772
21	0xbe0b8fde	-0.136291
22	0x3c80d413	0.015726125
23	0xbdb60a6e	-0.08888708
24	0xbe220c5d	-0.15825029
25	0xbdd21847	-0.10258537
26	0xbd635fd1	-0.0555113
27	0x3bfcecc1	0.007718653
28	0xbe430557	-0.19045006
29	0x3d146309	0.03622726
30	0x3c5e63e4	0.0135736205
31	0x3d134170	0.035951078
32	0x3cfcd74b	0.030864378
33	0xbc5db6b3	-0.013532328
34	0xbe198cc6	-0.14995107
35	0xbdb59530	-0.08866346
36	0xbc95d7f8	-0.018291458
37	0xbd06d66e	-0.03291934
38	0xbdcf9f57	-0.101378135
39	0x3cd09d9c	0.025465779
40	0x3ceb65fd	0.028735155
41	0x3c8101ff	0.015748022
42	0x3dcb1d9b	0.09917756
43	0xbd3b3c86	-0.045712017
44	0x3a16c047	0.00057506975
45	0xbe13c652	-0.14431122
46	0xbe019ca4	-0.1265741
47	0x3d33b41b	0.043872934

conv.8.weight f4 [1, 48, 4, 4]
0	0xbd2fbace	-0.04290276
1	0xbb08197c	-0.0020767143
2	0x3a8cb0eb	0.0010733878
3	0xbd453f2c	-0.04815595
4	0x3d1abfe3	0.037780654
5	0x3c5bbc60	0.013411611
6	0x3d6765a0	0.0564934
7	0x3c3012c8	0.010746665
8	0xbd1b6a1c	-0.03794299
9	0xbd55f530	-0.052235782
10	0x3caee306	0.021348488
11	0xbc9b6bbd	-0.018972272
12	0x3d0e265a	0.034704544
13	0x3d839a21	0.06425882
14	0x3dc6510c	0.09683427
15	0x3d023924	0.031792775
16	0xbccf700e	-0.025321987
17	0x3d2a1078	0.041519612
18	0xbd2d0cc0	-0.042248487
19	0x3dce4000	0.10070801
20	0xbcdfc0ab	-0.027313551
21	0xbc00db2a	-0.007864753
22	0x3b747383	0.0037300296
23	0x3c797dc0	0.015227735
24	0xbc2caba4	-0.010538969
25	0x3d56daaf	0.052454647
26	0x3d25c366	0.04046955
27	0x3be79979	0.007067856
28	0xbc92a82b	-0.017902454
29	0x3bfa7950	0.007643856
30	0x3c03587e	0.008016704
31	0xbc167e71	-0.009185419
32	0x3e0fe69b	0.14052813
33	0x3caf7edd	0.021422798
34	0x3dec20ce	0.115296945
35	0x3d8995d5	0.06718031
36	0x3c407193	0.011745828
37	0xbc37d628	-0.011220492
38	0xbd62b810	-0.055351317
39	0xbd038f29	-0.03211895
40	0x3df01e1c	0.11724493
41	0x3bd4c016	0.006492625
42	0x3d9d2202	0.07672502
43	0xbba00039	-0.004882839
44	0xbceb65f7	-0.028735144
45	0xbd22a51e	-0.03970825
46	0xbe0356f3	-0.12826137
47	0xbdc0c664	-0.0941284
48	0x3e109131	0.14117886
49	0xbcda4026	-0.026641916
50	0x3d6938ec	0.05693905
51	0xbc9bcc62	-0.019018356
52	0x3d06949f	0.03285658
53	0xbd1459ac	-0.03621833
54	0xbd3426b6	-0.04398223
55	0xbc2980df	-0.010345667
56	0x3d871c07	0.06597143
57	0xbcdd06cf	-0.026980786
58	0xbc1d9780	-0.00961864
59	0xbc25a8ec	-0.010111075
60	0xbda3b9ac	-0.079943985
61	0xbcc53658	-0.024073765
62	0xbde22c14	-0.110435635
63	0xbcc7b7e2	-0.024379674
64	0xbde321a6	-0.11090402
65	0xbd262b97	-0.040568914
66	0xbd710488	-0.058842212
67	0xbdd930ed	-0.10605035
68	0xbd4f4365	-0.05060138
69	0xbcec5ccd	-0.028852845
70	0x3c9749b6	0.018467765
71	0xbc8f72e2	-0.017510835
72	0xbce03020	-0.027366698
73	0xbc949a04	-0.018139847
74	0xbd259b6d	-0.04043143
75	0xbd22ad1d	-0.039715875
76	0x3bccc541	0.0062491004
77	0xbd1468c7	-0.036232736
78	0xbce37186	-0.027764093
79	0xbd8fff31	-0.07031096
80	0xbdbdaf80	-0.092619896
81	0xbe07dd0e	-0.1326792
82	0xbe05ab56	-0.1305364
83	0xbe02b7de	-0.12765452
84	0x3de236d3	0.11045613
85	0xba6a76ce	-0.0008944095
86	0x3d54e307	0.051974323
87	0x3d047721	0.032340173
88	0xbbd2e62c	-0.00643613
89	0xbcc2598f	-0.023724345
90	0x3bafab07	0.005360964
91	0x3cc8bb06	0.024503242
92	0x3d783307	0.06059554
93	0xbb86ae3f	-0.004110127
94	0x3d03bad4	0.032160595
95	0x3d55ebf0	0.05222696
96	0xbd87f57f	-0.066386215
97	0x3cc3849c	0.023866944
98	0xbd255003	-0.04035951
99	0x3d072aab	0.032999676
100	0xbbdd722b	-0.0067579946
101	0xbc818485	-0.01581026
102	0x3d870fd0	0.06594813
103	0x3cab35cf	0.020899681
104	0xbd2391ac	-0.039933845
105	0xbd5d4f0f	-0.054030474
106	0xbd628cdc	-0.055310115
107	0x3c5ff10b	0.013668309
108	0x3d514aa6	0.05109658
109	0x3d3eb864	0.046562567
110	0x3d392052	0.04519684
111	0x3dadbc99	0.08483238
112	0xbca6051e	-0.020266112
113	0xbb9ff198	-0.004881095
114	0x3d79ec61	0.061016444
115	0x3cba7942	0.022762898
116	0x3cf89834	0.030346014
117	0x3db103ca	0.08643301
118	0x3d765efd	0.06014918
119	0x3d99530c	0.07486543
120	0xbccfda3f	-0.025372623
121	0x3cead38d	0.028665328
122	0x3d095da3	0.033536565
123	0xbb845b36	-0.0040391935
124	0x3ccd796e	0.025082316
125	0x3db071b1	0.08615435
126	0x3d838e03	0.06423571
127	0x3d5c810e	0.053834014
128	0xbd66e92f	-0.056374725
129	0xbd3c8a74	-0.046030477
130	0xbd6a93d6	-0.057269894
131	0xbda00eeb	-0.078153454
132	0x3d193efe	0.03741359
133	0x3c97ae45	0.018515715
134	0x3d05a573	0.032628488
135	0x3c0b33a1	0.008496196
136	0x3c8df6c4	0.017329581
137	0xbcc9fbee	-0.024656262
138	0xbc4e33c4	-0.012585584
139	0xbb8512c3	-0.0040610745
140	0x3bc8d4a4	0.0061288644
141	0x3d2325ca	0.03983096
142	0x3d3afd36	0.045651637
143	0x3d6b4bde	0.0574454
144	0xbd49439d	-0.049136747
145	0x3d4ad196	0.049516283
146	0xbd867e54	-0.06567064
147	0x3e02a221	0.1275716
148	0x3c338043	0.010955873
149	0x3b7a720b	0.0038214948
150	0xbd70b925	-0.058770318
151	0x3d2d858a	0.04236368
152	0xbd304b8b	-0.043040793
153	0x3c75f6ce	0.015012456
154	0xbd814285	-0.06311516
155	0x3d7b642e	0.061374836
156	0xbd2e9ce8	-0.042630106
157	0x3d1386fe	0.03601741
158	0xbd7acbe5	-0.061229605
159	0x3dab158d	0.0835372
160	0x3e5f79ab	0.21823756
161	0x3d407c7e	0.046993725
162	0x3e154b30	0.14579463
163	0x3db2bbb1	0.087272055
164	0xbb640efe	-0.0034798975
165	0xbd8a49b3	-0.06752338
166	0xbd560738	-0.052252978
167	0xbdf1090c	-0.11769304
168	0xbd96a8e4	-0.07356432
169	0xbe1a603a	-0.1507577
170	0xbc82aa86	-0.015950453
171	0xbe60a9e9	-0.21939816
172	0x3dee1015	0.11624161
173	0xbc01fd2b	-0.007933895
174	0x3daf4ea4	0.085599214
175	0x3cf07fdb	0.029357841
176	0x3dc23d07	0.09484296
177	0x3d016cd0	0.031597912
178	0x3df7abf7	0.120933466
179	0x3d55a7f9	0.052162144
180	0xbdbcb70a	-0.092145994
181	0xbd941082	-0.07229711
182	0xbdde7c10	-0.10863507
183	0xbe132e5f	-0.14373158
184	0xbdb23d12	-0.087030545
185	0xbda83ef8	-0.08215135
186	0xbdb537b0	-0.08848512
187	0xbe394b31	-0.1809509
188	0xbe0bdea5	-0.13659151
189	0xbdc79b2d	-0.09746394
190	0xbd4455b1	-0.047933284
191	0xbe079738	-0.13241279
192	0xbd20e334	-0.039279178
193	0xbd8c2c89	-0.06844432
194	0xbdfec980	-0.12440777
195	0xbdfbe3e7	-0.12299328
196	0x3db6ebca	0.08931692
197	0x3db71cd6	0.08941047
198	0x3d2750ca	0.04084853
199	0x3d2d9ac6	0.04238393
200	0x3d1a9ecc	0.037749097
201	0xbd98c71b	-0.07459851
202	0x3c28f64e	0.01031263
203	0xbd44deb4	-0.04806395
204	0x3d288b14	0.04114826
205	0x3d5db047	0.05412319
206	0x3a25a98f	0.00063195167
207	0x3d7eaac9	0.062174592
208	0xbd1fe963	-0.039040934
209	0x3d30be0d	0.043149997
210	0xb9a16836	-0.00030785956
211	0x3c250d27	0.010073937
212	0xbc8a9c11	-0.016920121
213	0xba31d0f3	-0.000678315
214	0x3cf9a3c7	0.030473603
215	0xbc186994	-0.009302516
216	0xbd3f4860	-0.04669988
217	0x3cd1b59a	0.02559929
218	0x3c8f198a	0.017468233
219	0xbc09b158	-0.008404098
220	0x3b993616	0.004675637
221	0xba46fa03	-0.0007590355
222	0x3c9d3a60	0.019192874
223	0x3c810cfa	0.015753258
224	0xbc9b6e75	-0.018973568
225	0x3acb0c1c	0.001549128
226	0xbdb5c28e	-0.08874999
227	0x3a23ca7e	0.000624813
228	0xbc808cc7	-0.015692128
229	0x3c9af28e	0.018914487
230	0x3c81c120	0.01583916
231	0x3c331791	0.010930912
232	0xbca69a47	-0.020337237
233	0xbd2e6132	-0.04257316
234	0xbd3b23e3	-0.04568852
235	0xbd44e0ed	-0.04806607
236	0xbd962c1f	-0.07332634
237	0xbdafb476	-0.08579342
238	0xbd875418	-0.066078365
239	0xbd95e9ba	-0.073199704
240	0x3d4d2379	0.050082657
241	0x3d8911d3	0.06692853
242	0xbc1579fa	-0.00912332
243	0x3dee6ac7	0.1164146
244	0xbdd9b260	-0.106297255
245	0xbda9b9ea	-0.082874134
246	0xbdac9b0c	-0.0842801
247	0xbd86d091	-0.0658275
248	0x3c0ddc0e	0.008658422
249	0x3b0bc02d	0.0021324262
250	0xb98465bc	-0.000252528
251	0x3d3ff390	0.04686314
252	0x388e5cc6	6.788368e-05
253	0xbdaa2ab9	-0.0830893
254	0xbd680fc9	-0.05665568
255	0xbdae03cf	-0.0849682

conv.0.weight f4 [48, 24, 4, 4]
0	0xbe361a3f	-0.1778345
1	0xbbb0c299	-0.0053942916
2	0xbdd0e4ed	-0.10199914
3	0xbdbf4d74	-0.09340945
4	0xbc3dfed9	-0.011596405
5	0xbe06959d	-0.1314301
6	0xbe355a63	-0.17710261
7	0xbd71b4c1	-0.05901027
8	0x3c9a8bf8	0.01886557
9	0xbd901872	-0.070359126
10	0xbd493238	-0.049120158
11	0xbc9303c0	-0.017946124
12	0x3c8d68a9	0.01726182
13	0xbd2a6627	-0.041601326
14	0xbe02c57e	-0.1277065
15	0x3d8bbb32	0.06822814
16	0xbe9b9f54	-0.30394995
17	0x3e196735	0.14980777
18	0x3e7d36fb	0.24728005
19	0xbe131265	-0.14362486
20	0xbcdec91f	-0.027195511
21	0x3db755cd	0.08951912
22	0x3d6d37c9	0.05791453
23	0xbd9042b9	-0.07043976
24	0xbd338b1b	-0.043833833
25	0x3c7ccd12	0.015429752
26	0x3d7dcee2	0.061964877
27	0x3bbe2a69	0.0058033955
28	0xbe6cee2a	-0.23137727
29	0x3d2d772c	0.04234998
30	0x3d190fea	0.037368692
31	0xbbacae18	-0.005269777
32	0xbdcb2e4c	-0.0992094
33	0xbce0b19d	-0.027428443
34	0xbd9df942	-0.07713558
35	0xbe2ee804	-0.17080694
36	0x39acbf9d	0.0003294916
37	0xbd29dcff	-0.041470524
38	0xbd210d2a	-0.039319195
39	0xbd1e52db	-0.038653236
40	0xbd43228b	-0.047640365
41	0x3b3a8d21	0.0028465467
42	0xbc8f6389	-0.017503517
43	0xbda5c496	-0.080941364
44	0xbefd054d	-0.49418107
45	0xbdcb1a11	-0.09917081
46	0xbe48939b	-0.19587557
47	0xbead8dd7	-0.33897278
48	0xbe07ea8a	-0.13273063
49	0xbbe9fbad	-0.007140598
50	0xbcb31686	-0.021861326
51	0xbecef9d9	-0.40424994
52	0x3dacf8d1	0.084458955
53	0xba4253f3	-0.0007413022
54	0x3b8b8e9b	0.0042589433
55	0xbe0ed23f	-0.1394739
56	0x3da6022d	0.08105884
57	0x3c42264c	0.011849951
58	0x3c4ee632	0.012628125
59	0x3e0472e6	0.12934455
60	0xbc99241f	-0.018693982
61	0xbc2be430	-0.010491416
62	0xbca3f2a2	-0.020013157
63	0xbe6ee5a3	-0.23329787
64	0x3d25b3d8	0.040454715
65	0xbba72983	-0.005101384
66	0xbd0833b3	-0.03325243
67	0x3dd1f62d	0.102520324
68	0x3da9c830	0.08290136
69	0xbd0991e6	-0.033586405
70	0xbd6b1215	-0.05739029
71	0x3e3f8736	0.18703923
72	0xbe4880a4	-0.19580323
73	0xbc86cbb4	-0.016454555
74	0xbd640b13	-0.055674624
75	0xbe70ad05	-0.23503502
76	0x3d42ee99	0.047590826
77	0xbe0d71ca	-0.13812938
78	0xbd789d21	-0.060696725
79	0x3d25e5a4	0.040502205
80	0xbe0774fb	-0.13228218
81	0xbd0da351	-0.03457958
82	0xbc9863db	-0.018602302
83	0xbe18c550	-0.14919019
84	0xbdbedf37	-0.093199186
85	0x3c939cfa	0.018019188
86	0x3c5b503c	0.013385829
87	0xbc77bb86	-0.015120393
88	0xbda5a11b	-0.08087369
89	0x3ce49a01	0.027905466
90	0xbb4dde50	-0.0031413026
91	0xbd60882b	-0.05481736
92	0xbdbae5ec	-0.09125885
93	0xbd262064	-0.040558234
94	0x3b8ca280	0.0042918324
95	0xbe48201f	-0.19543503
96	0xbd32667a	-0.04355476
97	0x3c86e728	0.016467646
98	0xbe3db8c2	-0.18527511
99	0x3d4058e3	0.04695977
100	0xbd087c1e	-0.033321492
101	0xbca9fb7f	-0.020749805
102	0xbc8ac5da	-0.016940046
103	0xbda85fd5	-0.082214035
104	0x3d25f75c	0.040519103
105	0x3c9909de	0.018681463
106	0xbcf8e15e	-0.030380901
107	0x3d9184c7	0.071054034
108	0x3ea41e62	0.3205443
109	0x3bf54261	0.0074847196
110	0x3d04dcbe	0.03243708
111	0x3ddd03f6	0.10791771
112	0xbd6433c2	-0.055713423
113	0xbcd44551	-0.025911959
114	0x3983a7a5	0.00025111172
115	0x3b360175	0.0027771865
116	0x3bc1e847	0.005917582
117	0xbd6213a9	-0.05519453
118	0xbc13b893	-0.009016174
119	0xbd12b179	-0.035813782
120	0xbe4a30cb	-0.19745176
121	0xbd9176d2	-0.07102741
122	0xbc415215	-0.011799355
123	0x3da3fbb7	0.08006995
124	0xbdd4ce40	-0.103909016
125	0xbdb49649	-0.08817727
126	0xbd3295aa	-0.043599762
127	0xb9256c9d	-0.00015776088
128	0x3d9f7d9c	0.0778763
129	0xbcf8f2aa	-0.030389149
130	0x3d2e0081	0.04248095
131	0xbc139b30	-0.009009168
132	0x3d61c5d7	0.055120315
133	0x3dcfef0b	0.10153016
134	0x3e2f45a4	0.1711641
135	0xba12c0c6	-0.00055981835
136	0x3ccabfd1	0.024749668
137	0xbb8f29d4	-0.004369
138	0x3cf401e2	0.029786054
139	0xbc0ac5fd	-0.008470056
140	0x3cd2d22a	0.02573498
141	0x3daccd06	0.084375426
142	0x3dde79eb	0.10863098
143	0x3e0b2cc2	0.13591293
144	0xbe2f36b2	-0.17110708
145	0x3da669b7	0.08125632
146	0x3d6355bc	0.055501685
147	0xbe6f9d93	-0.23399954
148	0xbdc4438a	-0.095831946
149	0x3c6783fc	0.014130589
150	0x3d7185ac	0.05896537
151	0xbe058696	-0.13039622
152	0xbcfc62de	-0.030808862
153	0x3cec4b87	0.028844608
154	0x3d096d72	0.03355164
155	0xbd56e8d2	-0.05246813
156	0xbe585527	-0.21126233
157	0x3cc687a6	0.024234604
158	0x3d9289f3	0.07155218
159	0xbe837aa6	-0.2567951
160	0xbe4bcac2	-0.19901565
161	0xbccb3612	-0.024806056
162	0xbccee7ea	-0.02525707
163	0xbe5f2305	-0.21790703
164	0xbe33cfa0	-0.17559671
165	0xbd02a1b5	-0.031892497
166	0xbd4ab5dc	-0.04948984
167	0xbe2e2025	-0.1700445
168	0xbe12710e	-0.1430094
169	0xbc97d673	-0.018534875
170	0xbd0dd1ad	-0.03462379
171	0xbd9a4e93	-0.07534518
172	0x3c36a8ff	0.01114869
173	0xbcad72c2	-0.021172885
174	0xbc9d534a	-0.019204754
175	0xbd5e8dfa	-0.05433462
176	0xbd6d4d55	-0.057935078
177	0xbbd38111	-0.006454595
178	0x3d365bd9	0.044521187
179	0xbdd67ba3	-0.104728006
180	0x3bd2f19e	0.0064374944
181	0x3c218f11	0.00986077
182	0xbc820323	-0.015870636
183	0x3d65c063	0.056091677
184	0xbc0edfe4	-0.008720372
185	0xbcc106bc	-0.023562782
186	0x3bf9dbe0	0.007625088
187	0x3ce504ce	0.027956393
188	0xb9d721ae	-0.0004103309
189	0x3d0e2464	0.034702674
190	0x3e256954	0.1615346
191	0x3e1cc5c5	0.15309818
192	0x3e746156	0.23865256
193	0xbb1fca43	-0.0024382032
194	0x3db8d723	0.09025409
195	0x3d6da6c6	0.058020376
196	0x3b8bf394	0.00427098
197	0x3aa5ea8d	0.0012658403
198	0xbc802e5d	-0.015647108
199	0xbb75984c	-0.003747481
200	0x3d6ceb99	0.05784187
201	0xbc84bece	-0.016204264
202	0xbbd03053	-0.006353417
203	0xbd894b2f	-0.06703793
204	0x3e4fc397	0.20289455
205	0xbe0f8303	-0.14014821
206	0x3d40f435	0.047107894
207	0xbe63472f	-0.22195123
208	0x3e507fe6	0.2036129
209	0x3e1df752	0.15426376
210	0x3bb26587	0.005444232
211	0x3e7faf8a	0.24969307
212	0x3e1e8e6d	0.15484019
213	0x3dd266e9	0.10273535
214	0x3db4115d	0.08792374
215	0x3e70e21e	0.23523757
216	0x3de247bf	0.11048841
217	0x3c65e62a	0.014031926
218	0x3d85beda	0.06530543
219	0x3e4e78d8	0.20163286
220	0x3d1d520a	0.038408317
221	0xbd1f4a90	-0.038889468
222	0xbdf7ffb1	-0.12109316
223	0x3e013cbf	0.12620829
224	0x3ea11370	0.31460142
225	0xbcdbd239	-0.02683364
226	0x3e4cb1e7	0.1998974
227	0x3ead1f7a	0.33813077
228	0x3e235842	0.15951636
229	0x3dbeafe3	0.093108915
230	0x3d31c490	0.043400347
231	0x3e156d17	0.14592396
232	0x3e016f35	0.12640078
233	0x3e03d37b	0.12873642
234	0xba3af6b8	-0.0007132101
235	0x3e1501ab	0.14551418
236	0xbbaa854d	-0.005203879
237	0x3db8282a	0.08992036
238	0x3bdad4a3	0.0066781803
239	0xbda5d016	-0.0809633
240	0x3e6f588e	0.23373625
241	0xbe008b87	-0.12553225
242	0x3ccc8a93	0.024968421
243	0x3dbcb3ec	0.09214005
244	0x3e3bb809	0.18331923
245	0xbce047b1	-0.027377935
246	0x3dd22595	0.102610745
247	0x3d1ee927	0.03879657
248	0x3e00cb21	0.12577488
249	0xbd803e94	-0.06261936
250	0x3e1e1462	0.15437463
251	0x3d18dbb8	0.037318915
252	0x3e19b4dc	0.15010399
253	0x3b557073	0.0032568246
254	0x3da6d85e	0.081467375
255	0x3c4e6683	0.012597683

conv.0.bias f4 [24]
0	0xbea65c00	-0.32492065
1	0xbed9d239	-0.425432
2	0xbe28b9e2	-0.16477159
3	0xbddfe026	-0.10931425
4	0x3e5b1418	0.21394384
5	0xbde0def6	-0.109800264
6	0x3cdd6cb9	0.027029382
7	0xbd3e22d6	-0.04641994
8	0x3d101eb8	0.035185546
9	0xbd7367b7	-0.059425082
10	0xbeb50d3f	-0.35361668
11	0xbe3130e2	-0.17303804
12	0xbd8039df	-0.06261038
13	0x3d3b98de	0.045800082
14	0xbe13a35f	-0.1441779
15	0xbda39c26	-0.07988767
16	0xbd8da78c	-0.06916723
17	0xbe3a7bf6	-0.1821135
18	0xbd2abcf0	-0.04168409
19	0x3e270639	0.16310968
20	0x3ca1333b	0.019677749
21	0xbead264b	-0.33818278
22	0xbdc442f0	-0.0958308
23	0x3db92740	0.090406895
